model.pt (torch_old, 664953 bytes, 7 tensors)

weight f4 [249, 200]
0	0xbd5ef2cd	-0.05443077
1	0x3d0cbb92	0.03435857
2	0xbc989d20	-0.01862961
3	0xbdbd9dad	-0.0925859
4	0x3d24267a	0.040075757
5	0x3c246970	0.010034904
6	0x3d505bc6	0.050868772
7	0x3cc9f458	0.024652645
8	0xbdb1268d	-0.08649931
9	0x3db90b91	0.09035409
10	0x3c5f4230	0.01362662
11	0x3bd86220	0.0066034943
12	0x3d2f3cc6	0.042782567
13	0x3d93a145	0.07208494
14	0xbd505d3d	-0.05087017
15	0xbd8e1426	-0.06937437
16	0xbd83f772	-0.06443681
17	0xbd5aec50	-0.05344802
18	0xbc373e98	-0.011184357
19	0x3cfa0404	0.030519493
20	0x3d3b8ed2	0.0457905
21	0xbd55e990	-0.052224696
22	0x3d7afc7e	0.06127595
23	0x3dc3b6ff	0.09556388
24	0xbd874a4d	-0.066059686
25	0x3dc56323	0.096380495
26	0x3d167596	0.036733232
27	0x3c8d5480	0.017252207
28	0xbc20e950	-0.009821251
29	0xb9936e00	-0.0002811998
30	0x3c1876f0	0.009305701
31	0x3d84de85	0.06487755
32	0x3c2584d8	0.010102473
33	0xbcbf81ec	-0.023377381
34	0x3da22211	0.07916654
35	0xbbe11fd0	-0.0068702474
36	0xbca2d698	-0.019877717
37	0xbd220d23	-0.03956331
38	0xbdb2462f	-0.08704793
39	0x3c5e1fe8	0.013557412
40	0xbd92157e	-0.071330056
41	0x3b5ef760	0.0034021959
42	0xba4f9680	-0.00079188496
43	0x3cef54ac	0.02921518
44	0x3c88fd78	0.016722426
45	0xbd5cb207	-0.053880718
46	0xbce3b44c	-0.027795933
47	0x3d0691fa	0.032854058
48	0xbd9a15f8	-0.075237215
49	0x3cbfc808	0.023410812
50	0x3d5b8766	0.053595923
51	0x3d59dd4a	0.053189553
52	0x3cce3a5c	0.025174312
53	0xbc923748	-0.017848626
54	0x3d87a7e7	0.06623822
55	0x3d197e9e	0.037474267
56	0xbcc8b1e0	-0.02449888
57	0xb8722800	-5.773455e-05
58	0xbd0036cc	-0.03130226
59	0x3d28e662	0.041235335
60	0xbd08d2fc	-0.033404335
61	0x3b3140c0	0.002704665
62	0xbdb1c52d	-0.086801864
63	0xbdc4d197	-0.096102886
64	0x3d6cd44a	0.057819642
65	0xbdb687b5	-0.08912603
66	0xbd8fdcd8	-0.070245445
67	0x3d529a76	0.051416837
68	0x3c2c6398	0.010521792
69	0xbd090b56	-0.033458076
70	0x3da2f9f7	0.07957833
71	0xbd6e334d	-0.058154393
72	0x3db1ce63	0.08681943
73	0xbdc140d8	-0.09436196
74	0x3d4d44fa	0.05011461
75	0xbcafaec8	-0.021445647
76	0x3d955cdf	0.072931044
77	0xbcf5690c	-0.029957317
78	0x3d12170a	0.035666503
79	0x3b8057d0	0.003916718
80	0xbd602d9a	-0.05473099
81	0x3c000bb0	0.0078152865
82	0xbd011304	-0.031512275
83	0x3ce89eb4	0.028395988
84	0xbd06d140	-0.0329144
85	0x3dbb4f63	0.09146001
86	0x3bb7b500	0.0056062937
87	0xbd2ac8f0	-0.041695535
88	0xbdaa5873	-0.083176516
89	0xbd9c68e6	-0.07637195
90	0x3c4ad810	0.012380615
91	0x3d7375b6	0.05943843
92	0xbca36df8	-0.019949898
93	0xbd591ef0	-0.05300802
94	0xbd6bb530	-0.05754584
95	0xbbefc180	-0.007316768
96	0xbc0819b0	-0.008306906
97	0xbda9ffc5	-0.08300737
98	0xbd8e7e82	-0.06957723
99	0x3cf6004c	0.030029438
100	0xbd6e16c3	-0.058127176
101	0xbcb78958	-0.022404358
102	0xbd91d646	-0.071209475
103	0xbd415607	-0.047201183
104	0x3a9de000	0.0012044907
105	0xbdca41bb	-0.09875818
106	0xbd50aaa7	-0.050943997
107	0x3ce587ac	0.028018795
108	0xbdba8472	-0.09107293
109	0x3d9483f1	0.07251728
110	0xbd4c4cca	-0.04987792
111	0xbcbbbe4c	-0.022917889
112	0xbdc9007d	-0.09814546
113	0x3d3d7a9e	0.046259515
114	0x3d237156	0.039903007
115	0xbd13037a	-0.035891987
116	0x3a8a1b40	0.0010536686
117	0xbd3cfb53	-0.04613812
118	0x3d8b7ff7	0.06811517
119	0xbc22fc18	-0.009947799
120	0x3dbaf5a5	0.09128884
121	0x3b9829e0	0.0046436638
122	0x3d2f03a2	0.042728074
123	0x3dac7c59	0.08422155
124	0xbc78e1d0	-0.015190557
125	0x3d98ca83	0.07460501
126	0x3d375e9a	0.044767953
127	0xbd47b690	-0.04875809
128	0x3d313f7e	0.04327344
129	0x3d84d719	0.06486339
130	0xbdc57c6a	-0.09642871
131	0x3d9cf931	0.07664717
132	0xbd0a318a	-0.03373865
133	0x3d4b0bc2	0.04957176
134	0xbda7bb63	-0.08190038
135	0x3d5602a2	0.052248605
136	0xbdc0e48b	-0.09418591
137	0xbb9d7a60	-0.004805848
138	0x3d5dc0ea	0.054139055
139	0x3d233bda	0.039852
140	0x3c26f998	0.010191344
141	0xbbc67200	-0.0060560703
142	0x3c426c98	0.011866711
143	0x3d11e6b2	0.0356204
144	0xbd457f7a	-0.048217274
145	0x3d601f52	0.05471737
146	0x3d5f93ea	0.05458442
147	0x3d1ef286	0.038805507
148	0xbdaf6fba	-0.08566232
149	0xbd824d90	-0.0636245
150	0x3c076268	0.008263208
151	0x3d92e227	0.071720414
152	0x3cfe2dac	0.031027637
153	0x3d8e0537	0.069345884
154	0x3db02c39	0.08602185
155	0xbd0611ca	-0.03273181
156	0x3ac17600	0.0014759898
157	0x3da33f01	0.079710014
158	0x3dbb1703	0.091352485
159	0x3d9b6a97	0.0758869
160	0x3d0bb0fe	0.03410434
161	0xbd5a6977	-0.053323235
162	0x3d891153	0.066927575
163	0xbd5537ad	-0.05205505
164	0x3d2db026	0.042404316
165	0xbd33e10d	-0.043915797
166	0x3cf9b72c	0.030482851
167	0xbcd7f56c	-0.026362143
168	0xbd1b5eda	-0.037932254
169	0x3bcc77a0	0.0062398463
170	0x3db01dbb	0.08599421
171	0x3d6626aa	0.056189217
172	0xbd9e54db	-0.07731029
173	0x3d7c1eb2	0.06155271
174	0xbd843d30	-0.06456983
175	0xbd931ac0	-0.071828365
176	0xbda9422d	-0.08264575
177	0xbcc43bd8	-0.023954317
178	0x3b154860	0.0022778735
179	0x3dac0a81	0.08400441
180	0x3d566c42	0.052349336
181	0x3d457f9a	0.048217393
182	0x3d1c2ce2	0.03812874
183	0xbd4a4a0a	-0.049387015
184	0x3c9147c0	0.017734408
185	0x3d812ec1	0.06307746
186	0x3b5004a0	0.0031741038
187	0x3c5dc0c0	0.013534725
188	0xbca9ca68	-0.020726398
189	0x3d3961fe	0.04525947
190	0x3d79a722	0.060950406
191	0xbd3052f3	-0.043047857
192	0x3d8c523b	0.06851622
193	0x3dbf5859	0.09343023
194	0xbd8a19a5	-0.067431726
195	0xbdb015bb	-0.08597895
196	0xbd85e9d5	-0.065387405
197	0x3dc395ab	0.09550031
198	0x3b405040	0.0029344708
199	0xbc226358	-0.009911381
200	0xbdf82049	-0.12115533
201	0x3e25fe35	0.16210254
202	0x3e13af6b	0.14422385
203	0x3df182b0	0.11792505
204	0x3e194f38	0.14971626
205	0xbde8cc48	-0.113670886
206	0x3e26a8d7	0.16275345
207	0x3de8b28f	0.11362182
208	0xbe23505b	-0.15948622
209	0xbe1da83d	-0.15396209
210	0xbe0e4141	-0.1389208
211	0xbd955fec	-0.07293686
212	0x3dd4aa85	0.103840865
213	0x3e26614d	0.16248055
214	0x3db4e9a9	0.0883363
215	0x3da40900	0.08009529
216	0xbdefad33	-0.11702957
217	0xbe12aac0	-0.14322948
218	0x3e30188a	0.17196861
219	0xbdb979a4	-0.09056404
220	0x3e267d54	0.16258746
221	0xbe2a3b21	-0.16624118
222	0x3dc6dc1e	0.09709953
223	0xbe245c4b	-0.16050832
224	0xbe196c62	-0.14982751
225	0xbc57c674	-0.0131698735
226	0x3dca3bd2	0.09874691
227	0xbdd33979	-0.103136964
228	0x3e363d63	0.17796855
229	0xbe14379d	-0.1447434
230	0xbe0e6783	-0.13906674
231	0x3de88805	0.11354069
232	0x3e2e7a32	0.17038801
233	0xbe385e63	-0.18004756
234	0x3de04b88	0.109519064
235	0xbdea0176	-0.1142606
236	0x3de5d9dc	0.11223194
237	0x3de04052	0.10949768
238	0xbe02d93f	-0.12778185
239	0xbe266679	-0.16250028
240	0x3d76205d	0.060089458
241	0x3de6721e	0.11252235
242	0x3ddcf62d	0.10789142
243	0xbe2e268e	-0.17006895
244	0x3d95bdb4	0.073115736
245	0x3d4ee111	0.05050761
246	0x3d2497d6	0.040183865
247	0xbe19d52e	-0.15022728
248	0xbd802395	-0.06256787
249	0x3e0115ed	0.1260602
250	0xbdeacca0	-0.1146481
251	0xbe0c9e6a	-0.13732305
252	0x3de5884d	0.11207638
253	0x3e17d65b	0.14827864
254	0x3d93e1c0	0.07220793
255	0x3e0bc443	0.13649087

weight_ih_l0 f4 [300, 200]
0	0xbe2d5c82	-0.1692982
1	0x3e56b771	0.20968415
2	0x3e4d7ddb	0.20067541
3	0xbe04dc74	-0.12974721
4	0x3e58ff46	0.21191129
5	0xbe621e8d	-0.22081967
6	0x3d9e75c4	0.07737306
7	0xbdb7fce1	-0.0898378
8	0xbd0d7d54	-0.03454335
9	0xbd8ab98c	-0.067736715
10	0xbdd21959	-0.10258741
11	0xbde99dd5	-0.11407057
12	0xbc552d70	-0.013011321
13	0x3e4f4fb4	0.20245248
14	0x3dcbd246	0.09952216
15	0x3b574e55	0.0032853086
16	0xbe24b985	-0.16086395
17	0xbe33459b	-0.17507021
18	0x3ea0721c	0.3133706
19	0xbe161b03	-0.14658742
20	0xbbe02500	-0.0068403482
21	0xbe605152	-0.21906021
22	0x3da2caf4	0.079488665
23	0x3d484a93	0.048899245
24	0xbe3ab3c7	-0.18232642
25	0x3e140cdb	0.14458029
26	0x3e37f83d	0.17965789
27	0xbdbfa9b4	-0.0935854
28	0xbdbc0e48	-0.091824114
29	0xbcd85f01	-0.026412489
30	0xbe099c39	-0.134385
31	0x3d84fdbf	0.06493711
32	0xbce66e6a	-0.028128821
33	0xbdf48bad	-0.119407035
34	0x3ddd5a4a	0.10808237
35	0xbdd3ee09	-0.10348136
36	0x3e656b7c	0.22404283
37	0x3e26b174	0.1627863
38	0x3e15bc69	0.14622654
39	0x3d183afb	0.037165623
40	0x3dc44e85	0.09585289
41	0xbdcd6bca	-0.10030325
42	0x3e0094db	0.12556784
43	0xbe51bb14	-0.20481521
44	0x3e3f28bc	0.18667883
45	0xbd54ec4a	-0.051983155
46	0x3e209903	0.1568337
47	0xbe39096c	-0.1807
48	0x3dbf8284	0.09351066
49	0x3d1ae27a	0.03781364
50	0xbdaa6a70	-0.083210826
51	0xbe443d24	-0.19163948
52	0x3d90f24d	0.07077465
53	0x3e4a65c7	0.19765387
54	0x3d31a9e8	0.043374926
55	0x3d3ef124	0.04661669
56	0x3dff8513	0.12476554
57	0x3db744ef	0.08948695
58	0x3da3ae1c	0.07992193
59	0xbe490e9d	-0.19634481
60	0x3d170a31	0.036874954
61	0xbd8eb4a7	-0.069680505
62	0x3e269206	0.16266641
63	0xbd8f3b08	-0.06993681
64	0x39412a92	0.00018421773
65	0xbda708f5	-0.08156005
66	0xbde67304	-0.11252406
67	0x3e1076c3	0.14107804
68	0x3dc5e1f8	0.09662241
69	0xbdc637e5	-0.0967863
70	0x3d129d56	0.03579458
71	0xbe0acadd	-0.13553949
72	0xbdd62d8e	-0.104579076
73	0x3bcf96b1	0.0063351025
74	0xbcd96eb7	-0.02654205
75	0xbe06a6f7	-0.1314963
76	0xbd69eb18	-0.05710897
77	0x3e326b74	0.17423803
78	0xbd735502	-0.05940724
79	0xbc44bd15	-0.012007971
80	0x3d2b47dc	0.041816577
81	0xbd0de0e3	-0.034638297
82	0xbe2d0173	-0.16895084
83	0x3e32a32c	0.17445058
84	0xbdd25358	-0.10269803
85	0xbca682b9	-0.020326005
86	0xbd9501f1	-0.07275761
87	0xbdf5537e	-0.119788155
88	0x3d036afd	0.032084454
89	0x3bee7d48	0.0072781183
90	0x3e07f8df	0.1327853
91	0x3b6f2d44	0.0036495486
92	0x3d9054b2	0.07047404
93	0x3d89763b	0.06712004
94	0x3e501351	0.20319869
95	0x3d24b9b8	0.040216178
96	0x3e0115ab	0.12605922
97	0xbd7b7dcc	-0.061399266
98	0xba1e9b26	-0.00060503406
99	0x3e2cff1a	0.16894189
100	0xbde06753	-0.109572075
101	0xbd32da05	-0.04366495
102	0xbd9ba952	-0.07600655
103	0xbe717014	-0.2357791
104	0x3db487b8	0.08814949
105	0x3de9450e	0.11390124
106	0x3c88b654	0.016688503
107	0x3e2738b2	0.16330221
108	0xbda97954	-0.08275095
109	0x3dcb4a32	0.09926261
110	0xbc2c918f	-0.010532751
111	0xbe7b38ae	-0.2453334
112	0x3e19aa38	0.1500634
113	0x3d99501b	0.07485982
114	0x3c7c2472	0.015389549
115	0xbe12c68d	-0.14333554
116	0xbe008d6b	-0.12553947
117	0x3e38ed28	0.18059218
118	0x3e09503c	0.13409513
119	0x3ded14e5	0.11576251
120	0xbc06a7ea	-0.008218745
121	0xbe27aa9f	-0.1637368
122	0x3e1a9a49	0.15097918
123	0x3e1580be	0.14599892
124	0x3e47f77e	0.19528005
125	0xbdd30691	-0.10303987
126	0xbca50835	-0.020145515
127	0xbcb03661	-0.021510305
128	0x3e2d7572	0.16939333
129	0xbd9193e4	-0.07108286
130	0x3dad8454	0.08472505
131	0x3d00000b	0.03125004
132	0x3d6610c1	0.05616832
133	0x3ddd4028	0.108032525
134	0xbe0f7c25	-0.14012201
135	0xbdd8bb21	-0.10582567
136	0x3d4f8200	0.050661087
137	0x3db123f0	0.08649433
138	0xbdde40fa	-0.10852237
139	0xbd3a895c	-0.045541152
140	0x3e0ca7cf	0.13735889
141	0x3e3ddd0f	0.18541358
142	0xbd7076f5	-0.058707196
143	0xbd177eca	-0.03698615
144	0xbe083a55	-0.13303502
145	0x3a2154c1	0.0006154292
146	0x3d983011	0.07431043
147	0xbe03c26b	-0.12867133
148	0xbde8623f	-0.11346864
149	0x3c9bb4ae	0.019007053
150	0x3cce8795	0.025211135
151	0x3d313af3	0.04326911
152	0x3ca5e064	0.0202486
153	0x3a412e05	0.0007369223
154	0xbd3525d6	-0.044225536
155	0xbe275faa	-0.16345087
156	0xbca24050	-0.019806057
157	0x3e867a12	0.26265007
158	0x3e7b27e4	0.24526936
159	0xbdcd8845	-0.10035757
160	0xbdb2d2f9	-0.08731646
161	0xbe058963	-0.1304069
162	0xbdf98535	-0.1218361
163	0xbe0d9798	-0.1382736
164	0xbdbd5330	-0.092443824
165	0xbdf788ba	-0.120866254
166	0xbac2fd5d	-0.0014876534
167	0x3dbd8061	0.09253002
168	0xbdfc9d8e	-0.12334739
169	0xbde90019	-0.11376972
170	0xbe1019ca	-0.14072338
171	0x3d807054	0.06271425
172	0x3d952f98	0.072844684
173	0xbc7af0d9	-0.015316212
174	0xbb953a80	-0.004554093
175	0x3e280227	0.16407071
176	0xbdab90a1	-0.08377195
177	0x3e607395	0.21919091
178	0x3d3bf904	0.045891777
179	0xbbd10c6b	-0.006379654
180	0x3d5822f0	0.052767694
181	0x3cca7d20	0.024717867
182	0xbbd8c23e	-0.0066149523
183	0xbd43bc82	-0.047787197
184	0xbe243dab	-0.1603915
185	0xbe103d2e	-0.14085838
186	0x3e5ae5e6	0.21376762
187	0x3c606222	0.013695272
188	0x3d668747	0.056281354
189	0x3df753b4	0.12076512
190	0x3dac4d34	0.08413163
191	0xbe0ee4e6	-0.13954505
192	0xbdf6296d	-0.1201962
193	0xbcbfeb4e	-0.023427632
194	0xbe501aa8	-0.20322669
195	0x3cf4eadd	0.029897148
196	0x3da9e13c	0.08294913
197	0x3e607c61	0.21922447
198	0xbdc6a531	-0.096994765
199	0x3dae285e	0.08503793
200	0xbe7bcc95	-0.2458976
201	0x3e42867f	0.18996619
202	0x3d9ccc2b	0.076561294
203	0xbde82f56	-0.113371536
204	0x3dfbd441	0.122963436
205	0xbe1d08c4	-0.15335375
206	0x3e655556	0.22395834
207	0xbe0f86ad	-0.14016218
208	0xbc7bc443	-0.015366617
209	0x3e18a7c5	0.14907749
210	0xbdbc98b2	-0.09208812
211	0x3e882a03	0.26594552
212	0x3e80f586	0.2518732
213	0x3d2d9bbc	0.042384848
214	0xbd21f41b	-0.039539438
215	0xbe1e60d0	-0.15466619
216	0x3e4e8aa8	0.2017008
217	0x3c20e422	0.009820016
218	0xbd52c6bc	-0.05145906
219	0xbe2ea9f8	-0.17057025
220	0x3d7b3cef	0.061337408
221	0xbdec3b72	-0.11534776
222	0x3c981469	0.01856442
223	0xbe19f366	-0.15034255
224	0xbdb4bccc	-0.08825073
225	0x3e547f9c	0.20751804
226	0x3e355a44	0.17710215
227	0x3c5092f6	0.012730351
228	0x3dcd8e69	0.10036928
229	0x3db90bea	0.090354756
230	0x3d690ccc	0.05689697
231	0xbe26f1d8	-0.16303194
232	0x3c883036	0.016624551
233	0xbd8317c2	-0.06401016
234	0x3e7d1c4c	0.24717826
235	0xbdc0c791	-0.09413064
236	0xbc738289	-0.014862665
237	0x3d5b4acd	0.053538132
238	0x3e69db1b	0.22837488
239	0x3dd54992	0.10414423
240	0xbd47123f	-0.048601385
241	0xbd585521	-0.05281556
242	0x3e2114db	0.15730612
243	0x3d899313	0.06717505
244	0x3dc246cb	0.09486159
245	0xbdb53c7c	-0.08849427
246	0xbe95f70d	-0.29290047
247	0xbe72e1d3	-0.23718958
248	0x3e1c822f	0.15284036
249	0x3dafd2f7	0.0858516
250	0xbe38289b	-0.1798424
251	0xbe4258cc	-0.18979186
252	0x3bb2ef48	0.0054606535
253	0x3e2c19cd	0.16806717
254	0xbde58da6	-0.11208658
255	0x3daa28a7	0.08308535

weight_hh_l0 f4 [300, 100]
0	0xbd5f54a6	-0.054524086
1	0xbdeb1453	-0.11478486
2	0x3c8f679f	0.017505465
3	0x3db0d2b5	0.08633939
4	0xbe1ee93f	-0.15518664
5	0x3d809481	0.06278325
6	0xbd152d26	-0.03642001
7	0x3e1cb82e	0.15304634
8	0xbc638bb8	-0.013888292
9	0x3d560822	0.05225385
10	0xbc285cf2	-0.010276066
11	0x3cf27114	0.029594935
12	0xbce1d436	-0.02756701
13	0x3c2f4036	0.010696461
14	0xbdd478c2	-0.10374595
15	0xbd5e78f8	-0.054314584
16	0xbd8db47b	-0.069191895
17	0xbdbd738d	-0.09250555
18	0x3e057eb0	0.13036609
19	0x3885c740	6.3790474e-05
20	0xbca766b2	-0.020434711
21	0xbbae3e64	-0.005317496
22	0xbc6d086c	-0.01446734
23	0x3cd1b715	0.025599996
24	0xbe0a419a	-0.13501588
25	0x3daff36d	0.08591352
26	0x3cdc8ac2	0.026921634
27	0xbdc9ad2e	-0.098474845
28	0x3e10858a	0.14113441
29	0x3de0d141	0.10977412
30	0x3c9fa8ec	0.019489728
31	0xbca27048	-0.01982893
32	0xbc68422f	-0.014175936
33	0xbd8a86ad	-0.067639686
34	0x3dc2bcbb	0.09508654
35	0xbd94a6b8	-0.072583616
36	0xbe216280	-0.15760231
37	0xbc88f56c	-0.016718589
38	0xbdbe1146	-0.092806384
39	0x3d853439	0.06504101
40	0xbd53cb74	-0.0517077
41	0xbe096e7e	-0.13421056
42	0xbcc69804	-0.024242409
43	0xbe0a007f	-0.13476752
44	0x3d85a8ee	0.065263614
45	0x3c62e105	0.013847594
46	0xbe02a7f9	-0.12759389
47	0xbc064eb6	-0.008197477
48	0x3e431695	0.19051583
49	0xbe17806e	-0.14795086
50	0xbe1f0532	-0.15529326
51	0x3bf38482	0.0074315676
52	0x3affc53d	0.0019513738
53	0xbcdbcd93	-0.026831424
54	0xbd99f1e2	-0.075168386
55	0xbcf0c0ac	-0.029388748
56	0x3e2830c2	0.1642485
57	0xbae71d11	-0.0017632564
58	0xbd3c97a4	-0.046043053
59	0xbdaa254f	-0.08307897
60	0x3e1dcd50	0.15410352
61	0xbd080678	-0.033209294
62	0x3cbd6a80	0.023122072
63	0xbe16bca2	-0.14720395
64	0x3d4c93b4	0.04994555
65	0xbc87c40e	-0.016572978
66	0x3d3186d4	0.043341473
67	0xbd69afb3	-0.057052325
68	0x3dd88bc6	0.10573535
69	0xbe193e7a	-0.14965239
70	0x3e12246e	0.1427171
71	0xbd78b434	-0.06071873
72	0x3e07b36a	0.13252035
73	0xbd73c72d	-0.05951612
74	0x3d301724	0.04299082
75	0xba4b0a03	-0.00077453273
76	0x3d65eed6	0.056135975
77	0xbceda179	-0.02900766
78	0xbe1d5f5b	-0.15368406
79	0x3c8f5d95	0.017500678
80	0xbe33928e	-0.17536375
81	0x3d1a0999	0.03760681
82	0x3c7826aa	0.015145937
83	0x3bc36762	0.005963252
84	0x3e268636	0.16262135
85	0xbdacf186	-0.084445044
86	0xbdc40ad5	-0.095723785
87	0xbd93da7c	-0.07219407
88	0x3d018dab	0.031629246
89	0x3d6651d7	0.056230392
90	0x3dd25bac	0.10271391
91	0xbc2342d6	-0.009964665
92	0x3d4ff8bf	0.050774332
93	0x3cd5fb8c	0.026120923
94	0x3e36be4a	0.17846027
95	0x3ddf78c2	0.109117046
96	0xbda700ce	-0.0815445
97	0xbdc93e7c	-0.09826371
98	0xbdb67f0c	-0.08910951
99	0x3c1cc14b	0.009567569
100	0x3c9cd54c	0.019144677
101	0xbdc607c0	-0.09669447
102	0x3d286cc8	0.041119367
103	0xbd7ba456	-0.06143602
104	0xbd9a27c1	-0.07527114
105	0x3c9c570e	0.01908448
106	0xbdbb67ab	-0.091506325
107	0x3c75995e	0.014990179
108	0x3c9aeed5	0.018912712
109	0xbd46bd88	-0.048520595
110	0x3cbde711	0.02318147
111	0x3de38b16	0.11110513
112	0x3c5979d3	0.013273674
113	0x3c3054b8	0.010762386
114	0xbb8484cb	-0.0040441505
115	0x3dddea69	0.10835726
116	0x3ddf769b	0.10911294
117	0x3caa641a	0.020799685
118	0xbb0d8369	-0.002159322
119	0x3d20bb42	0.039241083
120	0xbd266da0	-0.04063189
121	0x3cc4e806	0.024036419
122	0xbac8ea1f	-0.0015328563
123	0x3c9aae49	0.018881934
124	0xbd4f5c73	-0.050625276
125	0xbbc0e915	-0.0058871605
126	0x3a9970a6	0.0011706545
127	0x3e082216	0.13294253
128	0x3d299836	0.041404925
129	0xbd91e713	-0.07124152
130	0x3d800752	0.06251396
131	0x3c5b41be	0.013382373
132	0x3d23fba6	0.040034913
133	0x3c4bf884	0.012449387
134	0x3d1367de	0.035987727
135	0xbe075a3e	-0.13218018
136	0xbdf76276	-0.12079327
137	0xbb1a18f0	-0.00235134
138	0xbc8ce2bc	-0.01719796
139	0xbdb92cb3	-0.09041729
140	0xbde1a483	-0.11017706
141	0xbcf622de	-0.030045923
142	0xbd13f3bf	-0.036121126
143	0xbd60460b	-0.0547543
144	0x3d049602	0.03236962
145	0xbcd78166	-0.02630682
146	0x3db3aa15	0.08772675
147	0xbdef5d4e	-0.11687718
148	0xbcb51114	-0.02210287
149	0x3bc95bee	0.006144992
150	0x3c3fde7c	0.011710759
151	0x3da6ca77	0.08144086
152	0xbd3472d0	-0.044054806
153	0xbd02ed8f	-0.031964835
154	0xbd134479	-0.035953972
155	0xbcd24d97	-0.025671763
156	0x3dd341e2	0.103153005
157	0x3cb172e9	0.021661239
158	0x3c86825c	0.016419582
159	0xbd21f7c8	-0.039542943
160	0xbdbdbe4c	-0.09264812
161	0x3d24cdad	0.04023521
162	0x3dd33042	0.10311939
163	0xbe0db163	-0.13837199
164	0x3c9a2a53	0.01881901
165	0xbc89230f	-0.01674035
166	0xbd0cad36	-0.034344874
167	0xbdd1e343	-0.10248425
168	0xbcdba8ff	-0.026813982
169	0xbd7d8e8f	-0.061903533
170	0x3d23a0b5	0.039948184
171	0xbe0f55ae	-0.13997528
172	0x3d480106	0.0488291
173	0x3bf83916	0.0075751645
174	0xbd6c66eb	-0.057715338
175	0x3de78ab3	0.11305752
176	0x3d9053e5	0.070472516
177	0xbcaa69c7	-0.020802392
178	0x3e3bffd3	0.18359308
179	0x3ce8e1c6	0.02842797
180	0xbc4d10fb	-0.0125162555
181	0xbd1f500f	-0.03889471
182	0x3cbe2f66	0.02321596
183	0xbdf93069	-0.12167437
184	0xbd550c3c	-0.05201362
185	0xbd1306c2	-0.035895117
186	0x3d16a6f9	0.03678033
187	0xbdb4e2c3	-0.08832314
188	0xbde98311	-0.11401952
189	0xbc8af3c6	-0.016961943
190	0x3b3f3b30	0.0029179566
191	0x3ce8d89b	0.028423598
192	0x3db1ca5a	0.086811736
193	0x3d5735da	0.05254159
194	0x3d8de74d	0.06928883
195	0x3df89274	0.12137309
196	0x3dda3bec	0.106559604
197	0xbd4f17ed	-0.050559927
198	0x3de5f4e1	0.112283476
199	0x3e20227c	0.15638155
200	0xbda87a56	-0.08226459
201	0xbdb403e8	-0.087898076
202	0xbce6b294	-0.028161325
203	0x3bf01c2c	0.007327577
204	0xbccca17a	-0.024979342
205	0x3dfa0336	0.12207644
206	0xbd180492	-0.037113734
207	0x3de1bafb	0.11021992
208	0x3d624fb1	0.05525178
209	0xbdc9d2f8	-0.09854692
210	0xbcdae38c	-0.02671983
211	0x3da42bad	0.08016143
212	0x3e1b6d85	0.15178497
213	0xbd984442	-0.07434894
214	0x3cafe7da	0.02147286
215	0xbdabdea8	-0.08392078
216	0x3e099398	0.13435209
217	0xbda59738	-0.08085483
218	0x3dbb344d	0.09140835
219	0xbdf1f978	-0.118151605
220	0x3d772865	0.060341258
221	0x3b98edd7	0.0046670246
222	0x3cf28407	0.029603971
223	0xbd26b75b	-0.040702205
224	0x3d24ef16	0.040267073
225	0x3e008ef4	0.12554532
226	0xbdbe2986	-0.09285264
227	0x3dcd2cdd	0.100183226
228	0x3d30ede9	0.04319564
229	0xbd594cd7	-0.053051796
230	0x3ce9d3e9	0.02854343
231	0x3ced9504	0.02900172
232	0xbd3884b9	-0.04504845
233	0xbda19adc	-0.07890865
234	0x3ddc007d	0.10742281
235	0xbcb3a8c3	-0.021931058
236	0xbda4ae42	-0.080410495
237	0x3e1eb26d	0.15497752
238	0xbd32fca7	-0.04369798
239	0xbdfc3a1e	-0.123157725
240	0x3da34e5d	0.07973931
241	0xbcf19bfb	-0.029493323
242	0x3d2b1a3e	0.041773073
243	0xbd8e18f9	-0.06938357
244	0x3cdd09ae	0.026982155
245	0xbcf6a588	-0.030108228
246	0xbc87229b	-0.016495993
247	0xbd729cb3	-0.05923147
248	0x3dd47e8d	0.103757
249	0x3d90f1db	0.0707738
250	0x3b22a96c	0.0024820222
251	0x3ca070fd	0.019585127
252	0xbcdc892c	-0.026920877
253	0xbde55ba2	-0.11199118
254	0xbdd7cd4c	-0.10537204
255	0xbdb93692	-0.090436116

bias_ih_l0 f4 [300]
0	0x3d9f7692	0.07786287
1	0xbba15a63	-0.004924105
2	0x3c86b3d7	0.016443176
3	0x3d57fb43	0.052729856
4	0x3ddd880a	0.10816963
5	0x3d7586d7	0.059943046
6	0xbc7d88c2	-0.0154745
7	0x3d84c6f0	0.06483257
8	0xbc0bb683	-0.008527401
9	0x3d5d5c4f	0.05404311
10	0xbc07d93f	-0.008291542
11	0xbc991c6d	-0.018690312
12	0xbd569866	-0.052391432
13	0xbc8d5cf1	-0.017256232
14	0x3d1f244d	0.03885298
15	0x3dd206bc	0.10255191
16	0x3e22e782	0.15908626
17	0x3df9cd19	0.121973224
18	0x3dda5453	0.10660615
19	0x3d8649e4	0.06557062
20	0x3bbccf6f	0.0057620327
21	0xbc76abe6	-0.015055632
22	0x3e541006	0.20709237
23	0x3d148bd9	0.03626618
24	0x3d01f237	0.031725135
25	0xbcf84836	-0.03030787
26	0x3c95eaf9	0.01830052
27	0x3c41ea79	0.011835688
28	0x3da1bd02	0.078973785
29	0x3d849e54	0.06475511
30	0xbcb6d0c4	-0.022316344
31	0x3e0b55fb	0.13607018
32	0x3d471b50	0.04861003
33	0x3d8d807a	0.069092706
34	0x3d825879	0.06364531
35	0xbd6acbd1	-0.05732328
36	0xbc43205b	-0.01190957
37	0xbcadf5e9	-0.021235423
38	0xbdfb0ab3	-0.122579
39	0x3d7eb966	0.06218853
40	0xbd06cc76	-0.032909833
41	0x3d4aa21b	0.049471002
42	0x3d764ea7	0.060133602
43	0xbd4f726a	-0.050646223
44	0x3dc972c1	0.09836341
45	0xbb935183	-0.004495801
46	0x3dd3759b	0.10325166
47	0x3d037206	0.032091163
48	0xbd3faa8a	-0.046793498
49	0x3e230d49	0.15923037
50	0xbc0bac87	-0.00852502
51	0x3dffe121	0.12494112
52	0x3df5dd6f	0.12005126
53	0x3cc0f421	0.02355391
54	0xbd9edd7f	-0.07757091
55	0xbd8a49cf	-0.06752359
56	0x3d8cdfae	0.06878601
57	0x3df7fe10	0.121090055
58	0x38b0609d	8.4103296e-05
59	0x3d2560e3	0.0403756
60	0x3c2ee0bc	0.010673698
61	0x3ddd1d95	0.10796658
62	0xbd465c08	-0.04842761
63	0xbd77f152	-0.060532875
64	0xbceaa093	-0.02864102
65	0x3c098fa3	0.008396062
66	0xbbfc3ffc	-0.007698057
67	0x3e359a11	0.17734553
68	0x3e1a295a	0.15054837
69	0x3d7ae346	0.0612519
70	0xbd80ee6a	-0.06295474
71	0x3dcb05f9	0.099132486
72	0x3dfe892f	0.124285094
73	0xbc5fd7b5	-0.013662268
74	0x3dbb6bde	0.091514334
75	0xbd87cde4	-0.066310674
76	0x3b65bd0e	0.0035055312
77	0x3d00c1e7	0.03143492
78	0x3dc86a75	0.0978593
79	0xbd10a14a	-0.035310067
80	0x3c0a1ef0	0.008430228
81	0xbc8849db	-0.01663678
82	0x3dd2f0d6	0.10299842
83	0x3e296cb4	0.16545373
84	0x3d1e40a0	0.03863585
85	0x3c1ea6ef	0.009683355
86	0xbd6aff1b	-0.057372194
87	0x3e004597	0.12526546
88	0x3e08a3e7	0.13343774
89	0x3dd58eb1	0.10427607
90	0xbcb29dfa	-0.021803845
91	0xbcbf7b10	-0.02337411
92	0xbd2d1ee3	-0.042265784
93	0x3dc5e851	0.096634515
94	0x3db8a6ac	0.09016165
95	0x3de7326f	0.11288916
96	0x3d9ae690	0.075635076
97	0xbda2e5f5	-0.07954017
98	0x3e354034	0.17700273
99	0x3dd3fe91	0.10351289
100	0xbd173245	-0.036913175
101	0xbdad031f	-0.08447861
102	0xbe107def	-0.1411054
103	0xbe164229	-0.14673676
104	0xb9d1cabf	-0.00040014644
105	0xbd16e5d7	-0.036840286
106	0xbde90c01	-0.11379243
107	0xbdc862a2	-0.09784438
108	0xbdada79e	-0.08479236
109	0xbc08481a	-0.008317972
110	0xbe027b78	-0.12742412
111	0xbe35889a	-0.1772789
112	0xbdc18784	-0.09449676
113	0xbd9fb389	-0.077979155
114	0xbccc54af	-0.024942724
115	0xbda2788d	-0.079331495
116	0xbdf19a0f	-0.117969625
117	0xbe85c505	-0.26126876
118	0xbe278633	-0.16359787
119	0xbdd3037a	-0.103033975
120	0xbdb6ac5a	-0.08919592
121	0xbd82279f	-0.063552134
122	0xbe26226b	-0.16224067
123	0xbe255e6b	-0.16149299
124	0xbe271d05	-0.16319664
125	0x3d0eb229	0.034837876
126	0xbe13c07f	-0.144289
127	0xbe524c28	-0.20536864
128	0x3c3c9b79	0.011511677
129	0xbe195c4e	-0.14976618
130	0xbe269069	-0.16266026
131	0xbd6c3e52	-0.05767662
132	0xbe3d4b75	-0.18485816
133	0xbdaba14a	-0.08380373
134	0xbd86c3b0	-0.06580293
135	0xbd35c47f	-0.044376846
136	0xbdc50151	-0.09619392
137	0xbe1128a3	-0.14175658
138	0xbca1ca9e	-0.019749936
139	0xbd834dca	-0.064113215
140	0xbd77604f	-0.06039458
141	0xbc9a1792	-0.018810067
142	0xbd6fe578	-0.058568448
143	0xbd3fff35	-0.046874244
144	0xbd08ab06	-0.033366226
145	0xbd8ff5fb	-0.07029339
146	0xbe35dadf	-0.17759274
147	0xbd2cee9f	-0.042219754
148	0xbe0eea53	-0.13956575
149	0xbd8ae771	-0.06782425
150	0xbe2adf48	-0.16686738
151	0xbe171b00	-0.14756393
152	0x3b208f10	0.0024499334
153	0xbe57023a	-0.20996943
154	0xbdb53702	-0.088483825
155	0xbe544427	-0.20729123
156	0xbdf8a179	-0.121401735
157	0xbde3322e	-0.110935554
158	0xbd010706	-0.03150084
159	0xbd8e81df	-0.06958365
160	0xbd641421	-0.05568326
161	0xbd99ea2c	-0.07515368
162	0xbdd4a322	-0.103826776
163	0x3b547ace	0.003242183
164	0xbe36e6f0	-0.17861533
165	0xbdd82264	-0.105534345
166	0xbcde2dd0	-0.027121454
167	0xbdbf1fa8	-0.0933221
168	0xbe58eb97	-0.2118362
169	0xbe3a84cd	-0.18214722
170	0xbd4eefec	-0.050521776
171	0xbdd5facb	-0.104482256
172	0xbe06f901	-0.13180925
173	0xbd97d4ec	-0.074136585
174	0xbd950fce	-0.07278405
175	0xbd9e316d	-0.07724271
176	0xbdac5fcd	-0.0841671
177	0xbe0d17da	-0.1377863
178	0xbdb5ad44	-0.088709384
179	0xbbf66868	-0.0075197704
180	0xbcdfdcf7	-0.027327044
181	0xbca35300	-0.019937038
182	0xbd9d9437	-0.07694285
183	0xbd5f6497	-0.05453929
184	0xbc44bb13	-0.012007493
185	0xbdf56b9d	-0.11983416
186	0xbd2fd757	-0.042929973
187	0xbd913d98	-0.07091826
188	0xbe271865	-0.163179
189	0xbcf7b78f	-0.030238895
190	0xbe1a9a9d	-0.15098043
191	0xbe46f371	-0.19428803
192	0xbddd63a6	-0.10810022
193	0x3c40cdd7	0.011767826
194	0x3c5ed0ac	0.013599556
195	0xbdd70b7f	-0.105002396
196	0xbe499c2e	-0.19688484
197	0xbd80ab3c	-0.0628266
198	0xbe3f120c	-0.18659228
199	0xbdae9172	-0.08523835
200	0xbde10f44	-0.1098924
201	0xbdb344af	-0.08753335
202	0xbdda4b72	-0.10658921
203	0xbc69c2ef	-0.014267667
204	0xbdcd3225	-0.1001933
205	0x3d3bb51f	0.045827027
206	0x3dd43ce3	0.10363176
207	0xbd000c65	-0.03126182
208	0x3dd69555	0.104777016
209	0xbde1bc74	-0.11022273
210	0x3d84e091	0.06488145
211	0xbd432513	-0.04764278
212	0x3dafa196	0.08575742
213	0xbda3e6cb	-0.08003005
214	0x3cac323b	0.021020046
215	0xbdd7f63e	-0.10545014
216	0xbcfba1c0	-0.030716777
217	0xbdb25517	-0.08707636
218	0x3cce8bb1	0.025213094
219	0x3a981491	0.0011602809
220	0xbdd16f33	-0.10226288
221	0xbd81e2e0	-0.06342101
222	0xbdfa674e	-0.12226735
223	0xbd98aef6	-0.07455246
224	0xbd0b3ba0	-0.03399241
225	0x3d9d5494	0.076821476
226	0x3d3c06f7	0.04590508
227	0x3de44855	0.11146609
228	0x3d8efe1d	0.06982062
229	0x3dcb038c	0.09912786
230	0x3d03cca0	0.032177567
231	0x3d97dcfc	0.07415196
232	0xbce33e0f	-0.027739553
233	0x3ba6ef4d	0.005094445
234	0x3e017e94	0.12645942
235	0x3d90d9c4	0.070727855
236	0xbda2cd22	-0.07949282
237	0x3d35c198	0.04437408
238	0x3de7da48	0.11320931
239	0x3d193fbf	0.03741431
240	0xbd9327fe	-0.07185362
241	0xbd58066e	-0.052740507
242	0xbdebbac9	-0.11510236
243	0x3bc711d0	0.0060751215
244	0xbd412cd1	-0.04716188
245	0xbd0c6277	-0.03427359
246	0xbdfc3bde	-0.12316106
247	0x3cf23c4b	0.029569766
248	0x3c2fab0c	0.010721933
249	0xbdb94c36	-0.09047739
250	0xbbe85f1e	-0.007091417
251	0xbd8f72b1	-0.070042975
252	0x3d9d6a8e	0.07686339
253	0xbe0301d4	-0.12793666
254	0xbc4cc028	-0.0124969855
255	0x3db061d2	0.08612408

bias_hh_l0 f4 [300]
0	0x3e007f3b	0.12548535
1	0xbd5bcd0a	-0.053662337
2	0x3dafc95c	0.08583328
3	0xbd0ca275	-0.03433462
4	0x3dad8774	0.08473101
5	0xbd4b9609	-0.04970363
6	0x3dff6917	0.12471216
7	0x3b84013c	0.0040284675
8	0xbd3ed733	-0.04659195
9	0x3e130a30	0.14359355
10	0xbd477e2b	-0.048704308
11	0x3e06d594	0.13167411
12	0x3d0cac38	0.034343928
13	0x3db7a443	0.08966877
14	0xbcdf7693	-0.02727822
15	0x3da820a0	0.08209348
16	0x3d896ae0	0.06709838
17	0x3d682d66	0.05668392
18	0x3d3945b2	0.045232482
19	0x3db4f164	0.08835104
20	0x3e0992e6	0.13434944
21	0x3dc95741	0.098310955
22	0x3cdeaed6	0.027182978
23	0x3d94e92b	0.07271036
24	0x3de232c9	0.11044843
25	0xbd10b0b4	-0.035324767
26	0x3d6b4210	0.05743605
27	0xbba8a807	-0.0051469835
28	0x3dc2d646	0.09513526
29	0x3dccf23d	0.10007141
30	0xbd220925	-0.039559502
31	0x3bce30f3	0.0062924563
32	0xbd7af0c0	-0.061264753
33	0x3d50e6a8	0.05100122
34	0xbc8777b1	-0.016536565
35	0x3c578022	0.013153108
36	0x3deb4c52	0.11489166
37	0x3d862225	0.06549481
38	0x3b8cf7c8	0.0043019988
39	0x3d91b776	0.071150705
40	0x3d1b36d8	0.0378941
41	0x3ded391f	0.115831606
42	0x3d399d4e	0.045316033
43	0xbd770345	-0.060305852
44	0xbc7c6020	-0.015403777
45	0xbd9d26d2	-0.0767342
46	0x3d9c7120	0.076387644
47	0x3da5d447	0.08097129
48	0x3d62d065	0.05537452
49	0x3d057f99	0.03259239
50	0xbd7d7a89	-0.061884437
51	0x3dd683a8	0.1047433
52	0xbd1d785d	-0.038444865
53	0x3d1f47c2	0.038886793
54	0xbd3b94e8	-0.045796305
55	0xbd971b26	-0.07378225
56	0x3dc99e3c	0.09844634
57	0x3dc98090	0.098389745
58	0xbd744e13	-0.05964477
59	0x3ca1375a	0.019679714
60	0x3dd96d10	0.10616505
61	0xbd0bece0	-0.03416145
62	0xbcef563f	-0.02921593
63	0xbd206b38	-0.03916475
64	0xbd7be4f9	-0.061497662
65	0x3d4d3c35	0.050106246
66	0xbca98cc4	-0.020697005
67	0x3d9fd667	0.07804566
68	0x3cda66ac	0.026660286
69	0xbcb4c8ea	-0.02206846
70	0x3dbfcd4a	0.09365328
71	0xbd4e72bd	-0.05040239
72	0x3d85883e	0.06520127
73	0xbd146a71	-0.036234323
74	0xbd3a505b	-0.04548679
75	0xbd7c0655	-0.061529476
76	0xbd3fb53d	-0.0468037
77	0x3d793417	0.060840692
78	0x3d23d555	0.03999837
79	0xbd1a71b1	-0.03770608
80	0x3db81590	0.08988488
81	0x3d2317d8	0.03981766
82	0xbcca08c5	-0.024662385
83	0x3df19018	0.11795062
84	0xbd00030f	-0.031252917
85	0x3e1c5d62	0.15269998
86	0x3dceec68	0.10103685
87	0x3d6c1e1a	0.057645895
88	0x3dcfee72	0.10152902
89	0x3e219cc2	0.15782455
90	0x3e0d04f8	0.13771427
91	0x3dae0397	0.084967785
92	0xbd40bdaf	-0.047055896
93	0x3dde9c98	0.10869712
94	0x3ce2d57f	0.027689693
95	0xbc8bba13	-0.0170565
96	0x3c9054c0	0.017618537
97	0x3d228c95	0.03968485
98	0x3c8d69ac	0.017262302
99	0x3da0da21	0.07854105
100	0xbd9fb0fa	-0.077974275
101	0xbe1c6f2a	-0.1527678
102	0xbe02b3d2	-0.12763909
103	0xbd5fa551	-0.054601017
104	0x3bdcbcc4	0.00673637
105	0x3badd956	0.0053054495
106	0xbdc9f00c	-0.098602384
107	0xbe182b41	-0.1486025
108	0xbe19ed55	-0.15031941
109	0xbd095177	-0.033524957
110	0xbe396815	-0.1810611
111	0xbd272a50	-0.040811837
112	0xbe1bbcf1	-0.15208794
113	0xbdc5fe76	-0.09667675
114	0x3cea56f9	0.028605925
115	0xbdab0669	-0.08350832
116	0xbe079ad5	-0.13242657
117	0xbe63c1bd	-0.22241874
118	0xbd086779	-0.033301804
119	0xbd9f3ffa	-0.077758744
120	0xbdf3564c	-0.11881694
121	0xbe27876c	-0.16360253
122	0xbda60641	-0.081066616
123	0xbe19cf4d	-0.15020485
124	0xbe1cec76	-0.15324578
125	0xbe09ffc0	-0.13476467
126	0xbe3fce54	-0.18731052
127	0xbdc0b96b	-0.09410366
128	0xbda03056	-0.07821719
129	0xbd71b846	-0.059013627
130	0xbe202323	-0.15638404
131	0xbd89059b	-0.06690522
132	0xbc4538ed	-0.012037498
133	0xbe4ca52d	-0.19984885
134	0xbdf61032	-0.12014808
135	0xbe24cf30	-0.16094661
136	0xbde93d2e	-0.11388622
137	0xbdedee66	-0.116177365
138	0xbdd37ca1	-0.103265055
139	0xbda3506d	-0.079743244
140	0xbd249f2d	-0.040190864
141	0xbc942443	-0.018083697
142	0xbdf97c44	-0.12181905
143	0xbd4e9dce	-0.050443463
144	0xbd72c5ad	-0.05927055
145	0xbe025e32	-0.12731245
146	0xbe5e9ab7	-0.21738707
147	0xbd19a318	-0.037509054
148	0xbd61782a	-0.055046238
149	0xbe089103	-0.13336568
150	0xbcf15bc0	-0.029462695
151	0xbe0837c6	-0.13302526
152	0xbe330fa1	-0.1748643
153	0xbda8face	-0.08250962
154	0xbe37e4f4	-0.17958432
155	0xbe60a33f	-0.21937273
156	0xbde6bcd6	-0.11266486
157	0xbd5fa702	-0.05460263
158	0xbd92c000	-0.07165527
159	0xbd6bde2b	-0.057584923
160	0xbd12f4ae	-0.035877876
161	0xbe566d72	-0.20940188
162	0xbdc185f3	-0.09449377
163	0xbc93ca93	-0.01804093
164	0xbdf6fabc	-0.120595425
165	0xbe07f3ec	-0.13276643
166	0xbd47c2b9	-0.048769686
167	0xbda521af	-0.08063065
168	0xbda4ffd4	-0.08056608
169	0xbd3da51d	-0.046300042
170	0xbe188c94	-0.14897376
171	0xbd88a017	-0.0667116
172	0xbdd8dae1	-0.10588623
173	0x3a9a1aed	0.0011757292
174	0xbb5576da	-0.0032572062
175	0xbe7562b2	-0.2396343
176	0xbdc15235	-0.09439508
177	0xbe2c75e7	-0.16841851
178	0xbdb29290	-0.08719361
179	0xbdb46269	-0.08807833
180	0xbcad8cda	-0.021185327
181	0xbc8972f5	-0.016778449
182	0xbe300eef	-0.17193197
183	0xbe52c715	-0.20583756
184	0xbd4d2cb4	-0.05009146
185	0xbe117ea0	-0.1420846
186	0xbd22d018	-0.039749235
187	0xbdbe365c	-0.09287712
188	0xbe25bc4b	-0.1618511
189	0xbdb1d760	-0.08683658
190	0xbdbbc45b	-0.09168311
191	0xbdf0c4b3	-0.117562674
192	0xbe5ea4ae	-0.21742508
193	0xbdf5b5e2	-0.11997582
194	0xbcc6497d	-0.024204964
195	0xbc816397	-0.015794558
196	0xbd5d0b9c	-0.05396615
197	0xbd788409	-0.060672794
198	0xbd94e3d4	-0.07270017
199	0xbd6237bf	-0.055228945
200	0xbdb4957d	-0.08817575
201	0xbdb279c5	-0.08714632
202	0xbdd7e21e	-0.10541175
203	0x3d934d76	0.07192509
204	0xbdc29d73	-0.09502687
205	0xbca71ab1	-0.02039847
206	0x3dba0b94	0.090842396
207	0x3da5f46a	0.08103259
208	0x3da8ea10	0.08247769
209	0xbddfc1ad	-0.109256126
210	0x3cd3088a	0.025760908
211	0xbdac0593	-0.08399501
212	0x3cc0c637	0.023532016
213	0xbdd8db9a	-0.10588761
214	0xbdba31b5	-0.09091512
215	0xbd3ad9a2	-0.045617707
216	0xbd81885d	-0.06324837
217	0x3bf5ffe0	0.0075073093
218	0x3deb2f1b	0.11483594
219	0xbafb2d88	-0.001916335
220	0xbd45bc7a	-0.04827545
221	0xbd2772a5	-0.040880818
222	0xbddaaccf	-0.10677492
223	0xbd76bc84	-0.060238376
224	0x3e0b3597	0.13594662
225	0x3d783ec2	0.060606726
226	0x3b18d853	0.0023322299
227	0xbdd3a33a	-0.10333867
228	0x3e0fcf3d	0.14043899
229	0x3d8ac06e	0.06774984
230	0x3d37e8d3	0.044899773
231	0x3de33730	0.110945106
232	0xbda74343	-0.08167126
233	0xbdeb2d0a	-0.114832
234	0x3ce3d71e	0.027812537
235	0xbde5b0fc	-0.11215398
236	0xbdd02748	-0.10163742
237	0x3d8181c5	0.0632358
238	0x3d31a957	0.043374386
239	0x3d7941f9	0.060853932
240	0xbe07208b	-0.13196008
241	0xbdf36b98	-0.11885756
242	0xbcf16ede	-0.02947181
243	0xba5d551b	-0.00084431627
244	0x3da210de	0.079133734
245	0x3d2dd1f0	0.04243654
246	0xbdd38ee2	-0.10329987
247	0x3db4757e	0.08811472
248	0x3dc1c1ad	0.09460769
249	0x3cfa9321	0.030587735
250	0xbd778523	-0.060429703
251	0xbd40e1ef	-0.047090467
252	0x3d83fe95	0.06445042
253	0x3d65404c	0.05596952
254	0xbcbc426e	-0.022980895
255	0x3ca5ddfd	0.020247454

weight f4 [249, 100]
0	0x3e2c5fb0	0.16833377
1	0x3d9faff6	0.07797234
2	0xbc21ba07	-0.0098710125
3	0x3b522ff4	0.003207204
4	0x3dc69bce	0.09697686
5	0xbe3485c2	-0.1762915
6	0xbdd2a520	-0.10285401
7	0xbe2aa9c4	-0.16666323
8	0xba9b3f80	-0.0011844486
9	0x3d175e6d	0.036955286
10	0xbd5b8c57	-0.053600635
11	0x3ca280f2	0.019836877
12	0xbe3af018	-0.18255651
13	0x3e43703f	0.19085787
14	0xbcdf4389	-0.027253883
15	0xbb66934e	-0.0035183015
16	0x3d208b57	0.039195385
17	0x3d554e4c	0.052076623
18	0xbe150856	-0.14553961
19	0xbc9d27bc	-0.019183986
20	0x3e2d4951	0.16922499
21	0x3cca7ba0	0.024717152
22	0xbc90a688	-0.017657533
23	0xbb7e61e8	-0.003881568
24	0x3d8cc73b	0.06873938
25	0xbe12a730	-0.1432159
26	0xbe02b437	-0.12764059
27	0x3d35e1c5	0.044404764
28	0xbc288e52	-0.010287838
29	0xbdd95f60	-0.106138945
30	0xbe06f717	-0.13180195
31	0xbe0bb1b5	-0.13642009
32	0xbd9471bb	-0.07248255
33	0x3e115bb1	0.14195134
34	0xbde93600	-0.11387253
35	0x3e0ad2c3	0.13556962
36	0x3df8470b	0.12122925
37	0x3da685b7	0.08130973
38	0xbb94eb25	-0.004544633
39	0x3d82de21	0.06390024
40	0x3e1f6446	0.15565595
41	0x3d8881ee	0.06665407
42	0x3dd68c14	0.104759365
43	0x3ddf5008	0.109039366
44	0xbe1c429c	-0.15259784
45	0x3cd179e1	0.025570812
46	0x3d8476fb	0.06468006
47	0xbcbe0f48	-0.023200646
48	0xbdd3a8e6	-0.10334949
49	0x3e382dbb	0.17986195
50	0x3c0d58f9	0.00862717
51	0x3dc45dbd	0.09588192
52	0xbd949633	-0.07255211
53	0x3ced8104	0.028992184
54	0x3dcc8f0d	0.09988222
55	0xbd99fd24	-0.07518986
56	0xbdad6277	-0.08466046
57	0x3dc9a63a	0.09846158
58	0x3e0ee157	0.13953148
59	0x3e12cf6d	0.14336939
60	0xbd80c114	-0.06286827
61	0xbe12cf71	-0.14336945
62	0xbe0e3c72	-0.13890246
63	0x3e196b9f	0.1498246
64	0xbe0cb401	-0.13740541
65	0xbcec1379	-0.028817879
66	0xbc906e72	-0.01763079
67	0xbdcb3767	-0.099226765
68	0xbc7b3c5e	-0.015334217
69	0x3df2334f	0.118261926
70	0xbdbe58e1	-0.09294296
71	0x3e0321c3	0.12805848
72	0xbe4987f4	-0.19680768
73	0x3e1ccc1f	0.15312241
74	0x3c4395d9	0.011937582
75	0x3e0d3137	0.13788305
76	0xbc9ae443	-0.018907672
77	0xbdbb6b0c	-0.09151277
78	0x3cef7c28	0.029234007
79	0x3db73f9e	0.08947681
80	0x3de74aca	0.11293562
81	0xbd5e42b0	-0.054262817
82	0x3d017f79	0.031615708
83	0xbd8fb2e4	-0.070165426
84	0xbd50d74b	-0.05098657
85	0x3d261053	0.04054291
86	0x3d9dcd1e	0.077051386
87	0xbe139fb0	-0.14416385
88	0xbd4bb38c	-0.049731776
89	0xbda1afd9	-0.078948684
90	0xbdabefeb	-0.0839537
91	0x3e289c13	0.16465788
92	0xbe453947	-0.19260131
93	0xbd7b0c31	-0.061290924
94	0xbcc751c7	-0.024330987
95	0xbe4dca6e	-0.20096752
96	0x3e273628	0.16329253
97	0x3e418f7f	0.18902396
98	0x3dd1cc96	0.102441
99	0xbda8f666	-0.08250122
100	0x3d8085f5	0.0627555
101	0xbae3c6dc	-0.001737799
102	0x3dfb60a2	0.122742906
103	0x3c3e062f	0.011598154
104	0x3cee934e	0.029122975
105	0xbddc3fe8	-0.10754377
106	0xbd2ae475	-0.04172178
107	0xbe2bdd1e	-0.16783568
108	0xbdfda933	-0.12385788
109	0xbb962d6c	-0.0045830514
110	0xbe0f36ca	-0.13985744
111	0x3cf528da	0.029926706
112	0xbd1e6873	-0.03867383
113	0x3e17d739	0.14828195
114	0x3d67b66c	0.056570455
115	0x3d7a9558	0.06117758
116	0x3dd38912	0.103288785
117	0x3d8377cd	0.064193346
118	0xbd86174c	-0.06547412
119	0x3d4f8b00	0.05066967
120	0x3dcec6ce	0.10096513
121	0x3e1bf378	0.15229595
122	0x3d6d5552	0.057942696
123	0x3e3b9cb5	0.18321498
124	0x3e07fb84	0.1327954
125	0xbdb16043	-0.086609386
126	0xbdea3f46	-0.1143785
127	0x3c047f58	0.008087002
128	0x3c81a67f	0.015826462
129	0xbe1654c8	-0.14680779
130	0xbdff79d9	-0.124744125
131	0xbe21be26	-0.15795192
132	0x3b873fd2	0.004127481
133	0x3db2841d	0.08716605
134	0xbe3be3e0	-0.18348646
135	0x3e31ad1f	0.17351197
136	0x3dd6edda	0.10494585
137	0xbcf44283	-0.029816872
138	0xbd3d0045	-0.046142835
139	0xbd9f1131	-0.07766951
140	0xbb311577	-0.002702085
141	0x3b5a96fb	0.0033354152
142	0x3d8a4a66	0.067524716
143	0x3d61e34c	0.055148408
144	0xbdb0841d	-0.086189486
145	0x3e3b7b55	0.18308766
146	0xbca5be0a	-0.02023222
147	0x3def1370	0.11673629
148	0xbdd2d495	-0.10294453
149	0x3d010eea	0.031508364
150	0x3e319b54	0.17344409
151	0x3de19f68	0.110167325
152	0x3bbdc5f1	0.0057914187
153	0x3d292fc6	0.041305326
154	0xbc26ac95	-0.010172983
155	0xbd0f3ea3	-0.034971844
156	0xbe1321dc	-0.14368385
157	0x3d9d7b43	0.07689526
158	0x3e375f3c	0.17907423
159	0x3b797de1	0.0038069414
160	0xbd44ddc1	-0.048063044
161	0xbdd3854c	-0.10328159
162	0xbe28364b	-0.16426961
163	0x3df55564	0.119791776
164	0xbc8e0a31	-0.017338844
165	0xbde13bdc	-0.109977454
166	0xbe34d953	-0.17661028
167	0xbdfbf953	-0.12303414
168	0xbdad03d6	-0.08447997
169	0x3d6a6020	0.05722058
170	0xbd776ee4	-0.060408488
171	0x3c972200	0.01844883
172	0xbda7ee41	-0.0819974
173	0x3d9991a1	0.0749848
174	0x3db80713	0.08985724
175	0x3dbd92af	0.09256493
176	0xbdb0f6ae	-0.086408004
177	0xbdebe802	-0.11518861
178	0x3d72957b	0.059224587
179	0x3d954ea5	0.07290391
180	0x3dfe710d	0.124239065
181	0xbc37ed9b	-0.011226083
182	0xbd5e7ef3	-0.054320287
183	0xbd2cde9c	-0.042204484
184	0xbcb81d33	-0.02247486
185	0x3d7a92b9	0.061175082
186	0x3e0eb07d	0.13934512
187	0xbe1027a8	-0.14077628
188	0x3d9242af	0.07141625
189	0xbd5cb226	-0.053880833
190	0xbe1c2af3	-0.15250759
191	0x3e052971	0.1300409
192	0xbe17a7f9	-0.1481017
193	0xbe20ab78	-0.1569041
194	0xbc38fa63	-0.011290166
195	0xbd924b9e	-0.07143329
196	0x3df76ff4	0.120819
197	0x3e182170	0.14856505
198	0xbd31a325	-0.043368477
199	0x3c3c2eef	0.011485799
200	0xbe1b2d3f	-0.15153979
201	0xbe0074ee	-0.12544605
202	0xbd9f916d	-0.0779141
203	0x3deb38b5	0.114854254
204	0xbdee2ccc	-0.11629638
205	0xbe4771ef	-0.19477056
206	0x3d91aff0	0.071136355
207	0x3e6de525	0.23231943
208	0x3da01e66	0.07818298
209	0xbe10b09f	-0.14129876
210	0xbe5a0205	-0.21289833
211	0x3e2e769d	0.17037435
212	0xbdbff543	-0.09372952
213	0xbd0a8852	-0.03382141
214	0x3e305d9b	0.17223208
215	0xbd7e741a	-0.06212244
216	0xbe28f8b0	-0.16501117
217	0xbce423b5	-0.027849058
218	0x3de6244a	0.1123739
219	0x3e43bfbe	0.19116113
220	0xbe060e7b	-0.13091461
221	0xbe1c98d8	-0.1529268
222	0xbe3081d6	-0.17237028
223	0xbe3eb72a	-0.18624559
224	0x3e3c8149	0.18408693
225	0xbd425bd4	-0.047450855
226	0x3dfe8561	0.12427784
227	0x3da97ce7	0.08275776
228	0x3e35ff9e	0.17773291
229	0x3d1f6b6c	0.038920805
230	0x3e2a06e1	0.16604187
231	0x3d668e1d	0.056287874
232	0x3e1ba82f	0.15200876
233	0xbde947e0	-0.11390662
234	0x3e2f4117	0.17114674
235	0xbd637349	-0.055529866
236	0xbd02c2ec	-0.031924173
237	0xbe1a7df3	-0.15087108
238	0xbe0b9b1b	-0.13633387
239	0xbe2e256f	-0.17006467
240	0xbcfff8be	-0.03124654
241	0x3df4c408	0.119514525
242	0xbe4b3aa3	-0.19846587
243	0xbe20ed9d	-0.15715642
244	0xbe0646a8	-0.1311289
245	0xbe007434	-0.12544328
246	0xbdda2302	-0.106512085
247	0x3df0ee4e	0.11764203
248	0x3e4dc55f	0.20094822
249	0xbe4ceb13	-0.20011549
250	0xbe157328	-0.1459471
251	0xbe2706ee	-0.16311237
252	0xbda93d08	-0.08263594
253	0xbd180eb1	-0.037123386
254	0xbde326a1	-0.11091352
255	0x3d96a02e	0.073547706

bias f4 [249]
0	0xbd38a4f6	-0.045079194
1	0xbd3ba69b	-0.045813184
2	0x3d4e9cbb	0.05044244
3	0x3d2ae6ee	0.041724138
4	0x3c5e15c4	0.013554994
5	0xbcc279f4	-0.023739792
6	0xbca4eabb	-0.02013146
7	0x3d06724d	0.03282385
8	0x3d40444a	0.046940126
9	0xbd5ee0a1	-0.05441344
10	0x3d304897	0.043037977
11	0xbc8b61cf	-0.017014412
12	0xbd502374	-0.05081506
13	0x3d29f01c	0.04148875
14	0x3c5e0b07	0.013552434
15	0x3d2d8dd1	0.042371575
16	0x3d01709c	0.031601533
17	0x3bef3f5e	0.007301255
18	0x3cc070df	0.023491321
19	0xbce6a470	-0.028154582
20	0xbd60d55c	-0.054890975
21	0xbcd0ee68	-0.025504306
22	0xbd0b01b8	-0.033937186
23	0x3cb9c568	0.022677138
24	0x3d118031	0.035522643
25	0xbd2df23c	-0.04246734
26	0xbb942b52	-0.0045217657
27	0x3c4efc59	0.012633407
28	0xbd504128	-0.050843388
29	0xbc5a3354	-0.013317902
30	0xbd2286b8	-0.03967926
31	0xbd2311fd	-0.039812077
32	0xbc5b0649	-0.013368198
33	0x3d11ebdf	0.035625335
34	0xbd2b6cd3	-0.04185183
35	0xbd244373	-0.040103387
36	0xbd4efcf4	-0.050534204
37	0xbd2e2e67	-0.04252472
38	0xbd030cfd	-0.03199481
39	0xbcda987d	-0.02668404
40	0xbd16c382	-0.036807545
41	0xbd7052ff	-0.0586729
42	0xbd581fde	-0.052764766
43	0xbc56aa3e	-0.013102112
44	0x3b2ef99b	0.002669907
45	0xbd8610b1	-0.065461524
46	0xbc8bc1b9	-0.017060148
47	0x3d0c27ff	0.03421783
48	0xbcfec002	-0.031097416
49	0xbd00390f	-0.031304415
50	0x3cd4a139	0.025955783
51	0xbd2df18b	-0.04246668
52	0xbc1c3783	-0.009534719
53	0x3bc36518	0.005962979
54	0xbd509321	-0.050921563
55	0xbd23fce8	-0.040036112
56	0xbd3a8a3f	-0.045541998
57	0xbd1e16b2	-0.038595863
58	0xbd09bc80	-0.033627033
59	0xbd03f384	-0.032214656
60	0x3b80dbf7	0.003932472
61	0x3d3d687b	0.04624222
62	0x3d493d91	0.04913098
63	0x3c0fa5df	0.008767574
64	0x3c28c667	0.010301209
65	0xbccdc753	-0.02511946
66	0x3ce9ee62	0.028556053
67	0xbd587053	-0.052841496
68	0x3d2efbfa	0.042720772
69	0xbd0c36b6	-0.034231864
70	0x3db0c0e6	0.086305425
71	0x3d7b7ad0	0.06139642
72	0x3d872496	0.06598775
73	0xbc90c6ea	-0.017672975
74	0xbd759979	-0.059960816
75	0x3d914c33	0.07094612
76	0xbbe019ce	-0.0068390137
77	0x3bb49ad1	0.0055116196
78	0xbd1c9bd3	-0.038234543
79	0x3cf2bfa7	0.029632403
80	0xbd7f5e96	-0.062346064
81	0x3d1b0a3b	0.037851553
82	0x3de4d8a8	0.111741364
83	0xbd145858	-0.036217064
84	0xbd6e6ae5	-0.05820741
85	0xbd066209	-0.032808337
86	0xbdae5fb1	-0.085143454
87	0x3d16e983	0.036843788
88	0xbd5227c9	-0.051307473
89	0x3c89d14f	0.016823439
90	0x3d05f023	0.032699715
91	0xbcd6b2e2	-0.026208345
92	0xbc66a107	-0.014076478
93	0xbd8c7bd5	-0.068595566
94	0xbd37fc3d	-0.044918288
95	0xbcbb7bc3	-0.022886163
96	0xbd18cb73	-0.0373034
97	0xbcc0edde	-0.023550924
98	0xbcb0a16f	-0.021561353
99	0xbcfb7dc5	-0.03069962
100	0xbc811a4b	-0.015759608
101	0xbd4e1c07	-0.050319698
102	0xbcd38344	-0.025819428
103	0xbd3daca1	-0.04630721
104	0xbb416165	-0.0029507515
105	0xbc63add4	-0.013896424
106	0x3d00997c	0.031396374
107	0xbc959ae5	-0.018262336
108	0xbe18c861	-0.14920188
109	0x3d25d8fb	0.04049013
110	0xbd23cedc	-0.0399922
111	0xbd3683dc	-0.044559345
112	0xbbd322dd	-0.006443365
113	0x3b3a1469	0.0028393513
114	0x3d3e7dce	0.046506695
115	0xbd3045d3	-0.04303534
116	0xbd460704	-0.048346534
117	0xbd05ca47	-0.03266361
118	0xbd0ff842	-0.035148866
119	0xbe27c0e3	-0.16382174
120	0xbd10ddf4	-0.03536792
121	0xbd1b2a55	-0.037882168
122	0x3d76e2c4	0.060274854
123	0x3b76ef19	0.0037679134
124	0xbd43f21f	-0.047838327
125	0xbd50af56	-0.050948463
126	0xbdb77e72	-0.089596644
127	0xbccaf3e2	-0.024774496
128	0xbd4c7c1c	-0.049923047
129	0x3d243152	0.040086098
130	0xbba0c634	-0.00490644
131	0x3d1864e9	0.03720561
132	0xbc06989d	-0.008215097
133	0xbd025d0a	-0.03182701
134	0xbcbc1316	-0.02295832
135	0xbdbdac27	-0.09261351
136	0xba8ce6fb	-0.001074999
137	0xbd43af56	-0.047774635
138	0xbd22e1a7	-0.03976598
139	0x3dccaea9	0.09994251
140	0x3c6d64c3	0.0144893555
141	0xbd27dde2	-0.04098309
142	0xbd178988	-0.036996394
143	0xbd3ffff8	-0.04687497
144	0xbd0c0e04	-0.034193054
145	0xbc172e3d	-0.009227333
146	0x3c0c4bd1	0.008562998
147	0xbc224195	-0.009903331
148	0xbc6c8934	-0.014437009
149	0xbcc6120e	-0.024178531
150	0xbd3c6b05	-0.0460005
151	0xbd5507c8	-0.052009374
152	0xbd0d26aa	-0.0344607
153	0xbce86088	-0.028366342
154	0xbcd7e872	-0.026355956
155	0xbcc49885	-0.023998508
156	0x3d3954df	0.045246955
157	0xbd0c7738	-0.034293383
158	0xbd140d25	-0.036145348
159	0x3c8b0871	0.016971799
160	0xbcf85124	-0.030312128
161	0xbd4a5fee	-0.049407892
162	0xbd337846	-0.043815874
163	0xbd1a7a32	-0.03771419
164	0xbd1471b0	-0.036241233
165	0xbd2bbe7b	-0.041929703
166	0xbd080d62	-0.033215888
167	0xbd194087	-0.037415054
168	0xbcbdd157	-0.02317111
169	0xbd025ad1	-0.03182489
170	0xbcfa4ddf	-0.03055471
171	0xbdbcf455	-0.0922629
172	0xbd4737bb	-0.048637133
173	0xbe02d20a	-0.12775436
174	0xbcd7f7ad	-0.026363218
175	0xbcc7a5b1	-0.024371
176	0xbd0cf4f4	-0.034413293
177	0x3b8f8a24	0.0043804813
178	0xbce0024b	-0.027344843
179	0xbcfbcaf5	-0.030736426
180	0xbd0825f5	-0.033239324
181	0xbcdf8117	-0.027283235
182	0xbd0616dc	-0.032736644
183	0xbd162b98	-0.036662668
184	0xbd03e6c7	-0.03220251
185	0xbd2acddb	-0.041700225
186	0xbcd75686	-0.026286375
187	0xbcdffeb9	-0.02734314
188	0xbd18ab87	-0.037272956
189	0xbcfb9e9c	-0.03071528
190	0xbd327ea8	-0.04357782
191	0xbd2b5c2e	-0.041835956
192	0xbceb9ddc	-0.028761797
193	0xbc895092	-0.016762052
194	0xbd0c195f	-0.034203883
195	0xbd3a0a9d	-0.045420278
196	0xbcde724c	-0.02715411
197	0xbd05494c	-0.032540604
198	0xbd236968	-0.039895445
199	0xbd075d96	-0.033048235
200	0xbc51375d	-0.012769547
201	0xbd05a41c	-0.03262721
202	0xbc9b8de1	-0.018988552
203	0xbc1c043f	-0.009522497
204	0xbc44158e	-0.01196803
205	0xbd15ff90	-0.036620677
206	0xbd1806ff	-0.037116047
207	0xbd10d8c4	-0.035362974
208	0xbd210b84	-0.039317623
209	0xbd144f83	-0.03620864
210	0xbd196fe6	-0.03746023
211	0xbd084d3c	-0.03327678
212	0xbd08d158	-0.03340277
213	0xbcce6bd6	-0.025197905
214	0xbd07aa6d	-0.033121515
215	0xbcb30ee0	-0.021857679
216	0xbd1048ef	-0.035225805
217	0xbcb7e23d	-0.022446746
218	0xbd23e1b7	-0.04001018
219	0xbd1838f5	-0.037163693
220	0xbd358035	-0.04431172
221	0xbd21e3c7	-0.039523866
222	0xbd138ba6	-0.03602185
223	0xbd255d49	-0.040372167
224	0xbd10a626	-0.0353147
225	0xbd10b306	-0.03532698
226	0xbcd501ff	-0.026001928
227	0xbd08f6fa	-0.03343866
228	0xbd072584	-0.032994762
229	0xbd05f230	-0.03270167
230	0xbd15cd51	-0.036572758
231	0xbd067011	-0.03282172
232	0xbd08a0a7	-0.033356335
233	0xbc9b44bf	-0.01895368
234	0xbd224a1e	-0.039621465
235	0xbce9a66f	-0.028521745
236	0xbd124d90	-0.0357185
237	0xbd0d2220	-0.034456372
238	0xbcff784b	-0.03118529
239	0xbd1804ae	-0.037113838
240	0xbd1c547c	-0.038166508
241	0xbcc996d2	-0.02460805
242	0xbcefd159	-0.02927463
243	0xbd1fc4bd	-0.039005984
244	0xbd08e9c5	-0.033426065
245	0xbd1753ff	-0.03694534
246	0xbd0ac549	-0.033879552
247	0xbd4a0674	-0.04932256
248	0xbd43f6db	-0.04784284
